xy_position/weights/out.npy (npy, 41040 bytes, 1 tensors)

array f4 [1024, 10]
000000 19 e0 98 3f ba 19 2c bf cd b9 c6 be f9 67 8f be
       1.1943389 -0.67226756 -0.3881363 -0.28009012
000010 42 f0 5a 3f 78 1b 88 bf 7c 7a 1a 3e 87 fc b6 3f
       0.85522854 -1.0633383 0.15085787 1.4295815
000020 35 6a e8 bf 97 30 22 3f 76 36 a4 bf 30 19 ed be
       -1.8157412 0.6335539 -1.282912 -0.4630828
000030 c8 a8 c7 bf 95 89 9c bf d2 26 21 bf 5f 3f 96 bf
       -1.5598383 -1.2229487 -0.6294986 -1.1738089
000040 3c 46 79 bf 43 b5 71 3e 28 25 1a bf c1 1e 6e 3f
       -0.97372794 0.23604302 -0.60212946 0.93015677
000050 96 88 d5 be 7e f5 ee bf cb 99 02 3f cf fe ec 3d
       -0.4170577 -1.8668668 0.5101592 0.115720384
000060 16 7c 9b bf 80 49 cf 3f 61 7c f7 be 15 8f c4 be
       -1.2147243 1.6194305 -0.4833708 -0.38390413
000070 0b 1b 54 3d 16 94 b5 bd 86 8d b1 bf c1 60 ec 3e
       0.051783603 -0.08866136 -1.3871315 0.46167567
000080 10 3c 89 3f 85 3f d4 be 71 86 a0 3e 32 b9 fe bd
       1.0721455 -0.41454712 0.3135257 -0.12437667
000090 c5 8b 31 bf 86 8a 4a 3e a1 4e d8 3e b4 d1 db 3d
       -0.69353896 0.19779405 0.4224749 0.10733357
0000a0 c7 25 52 bf 69 c9 6e 3f 5a 94 b9 3f 80 a8 ce be
       -0.82088894 0.9327608 1.4498398 -0.4036293
0000b0 b6 2e 8d be 8c f0 20 bf 2b 2a 66 3f b5 ba 81 bf
       -0.275747 -0.62867045 0.89908093 -1.0135103
0000c0 68 38 bf bf d9 8d c7 be f8 fc 2a bf 2e 9a cc bf
       -1.4939089 -0.3897541 -0.6679225 -1.5984552
0000d0 87 97 ab bf 7b a4 65 bf 5c f6 80 be b3 46 5f be
       -1.3405617 -0.897041 -0.25187957 -0.21804313
0000e0 79 66 91 bf fd 11 2e bf 6d f4 45 3f b5 c3 87 bf
       -1.1359397 -0.679962 0.7732609 -1.06066
0000f0 5e 29 82 3e ee 39 89 bf 7a 7a 35 bf 49 77 8d 3f
       0.25422186 -1.0720804 -0.7089001 1.1052028
000100 61 08 12 bd 94 3d 45 3f b5 e8 a2 be 08 f8 41 bf
       -0.035652522 0.77047086 -0.31818166 -0.7576909
000110 64 cb 43 3d 9d 1f c5 bf 20 a7 79 3f 83 dd b3 3e
       0.04780139 -1.5400273 0.9752064 0.35129938
000120 63 91 d2 3e 59 28 7b 3f f7 ec 55 be d1 ae cf 3e
       0.41126546 0.9810844 -0.20891176 0.40563062
000130 e9 c2 b3 3f 01 97 e4 bf fa 76 e4 be 73 7c d5 bd
       1.4043857 -1.7858583 -0.44622022 -0.104241274
000140 ca 5e ce be 9b a8 11 3f 4d 3d df 3e 3a b2 cb bf
       -0.40306693 0.56897897 0.43601456 -1.5913765
000150 ee 85 9c 3f db a0 30 bf d4 19 a6 be d6 e1 4c 3c
       1.2228372 -0.68995446 -0.3244158 0.012505015
000160 2e 48 1d 3e 2e ea c0 3e e0 f4 90 3e 8c 20 c6 3f
       0.15359566 0.37678665 0.28311825 1.5478683
000170 15 54 ea bf fd 42 c6 3e bf 29 07 be d7 62 5c 3f
       -1.830691 0.38722983 -0.13199519 0.8608832
000180 3f d4 23 be 7f bc aa 3f 6d bb b1 3f d1 4b 81 3e
       -0.15998934 1.3338774 1.3885323 0.25253156
000190 21 3d 92 3f 19 88 a4 be a1 8e 92 3f be 86 89 bf
       1.1424905 -0.32135084 1.1449777 -1.0744245
0001a0 7e 94 e3 3e 27 9b da bf 1e 40 7b 3f 01 27 8a be
       0.44449228 -1.7078599 0.9814471 -0.26982883
0001b0 af ce 94 bd 94 58 1a be 0c 79 25 bf f3 0c 22 3e
       -0.07265984 -0.15072852 -0.6463783 0.15825252
0001c0 88 68 b5 bf 07 2b a4 3e 3d 6c d5 3e d3 e9 28 3f
       -1.4172525 0.32064077 0.41684142 0.6598179
0001d0 89 d2 52 3f 8c 0a ec 3e ec 98 29 3f 94 44 cb bf
       0.823525 0.46101797 0.66248965 -1.5880303
0001e0 3f 79 a2 3e 0c 91 72 bf 88 04 55 be 9f 95 d2 bd
       0.31733128 -0.94752574 -0.2080251 -0.10282444
0001f0 b6 d0 9b bf 9a 60 51 3f 92 5d 0a bf 96 f5 f1 3e
       -1.2173069 0.8178803 -0.54049027 0.4725768
000200 72 1c 9b be 3d 6b 4b bf d6 f6 b1 3e 7d 06 94 3d
       -0.3029514 -0.7946051 0.34758633 0.072278
000210 de de d0 be d2 03 82 be b7 ec 20 bf 93 ed b6 be
       -0.40795034 -0.2539354 -0.628612 -0.3572813
000220 16 89 a1 be 64 87 5e be 3b 3a 4d bf 0a 2b 7e 3f
       -0.315499 -0.21731335 -0.8016698 0.9928442
000230 aa f9 ba bf 2c a0 b6 be a4 6c ed 3d fa 9a 29 bf
       -1.4607441 -0.35669076 0.11592987 -0.662521
000240 ed 40 dd 3f 5d 46 60 be 9e 72 6c 3f b2 8f 1e bf
       1.7285439 -0.21901841 0.9236239 -0.6193801
000250 ea 9b 3d 3e d8 51 2d 3f 2e d8 ae 3f ff b0 87 be
       0.18516508 0.6770301 1.3659723 -0.26502225
000260 6c 55 f0 3e cd 29 d6 bf 73 3a 01 be ec 1b a6 3e
       0.46940172 -1.6731507 -0.12619953 0.32443178
000270 02 92 8f 3f bf f7 74 3f df 1b 5f bf b7 9c bc 3d
       1.1216433 0.9569053 -0.871519 0.092095785
000280 10 5a d3 bf ba a6 df be a3 7b 38 3e e2 f2 c8 3d
       -1.651186 -0.4368189 0.18015914 0.09811951
000290 36 9b 71 3f cb 2d a8 3f bf 27 01 3f 4f f2 e0 be
       0.9437746 1.3138975 0.5045127 -0.43934867
0002a0 c7 b8 96 3f 6e 0c b1 3f 35 f0 7e bf be c7 6d 3f
       1.177514 1.3831918 -0.99585277 0.9288291
0002b0 7e 3c 9c 3e 29 1b 38 bf c2 43 16 3f 8f db ae 3e
       0.30514902 -0.71916443 0.5869714 0.34151885
0002c0 39 0c a7 3e 49 90 a1 3f 9d 80 45 3e 1b 48 1a 3f
       0.32626513 1.2622157 0.19287343 0.60266274
0002d0 13 0a 47 be dd f2 e4 be 92 4a c2 bf 1e e1 ca bf
       -0.19437437 -0.4471654 -1.5179007 -1.584995
0002e0 71 fc a0 3f bb 16 0b 3f a9 7f cd be f3 f7 b2 3e
       1.2577039 0.5433156 -0.4013646 0.34954795
0002f0 7b b4 17 3f c8 75 3c be 00 97 fe 3e 93 16 47 be
       0.59259766 -0.18404305 0.4972458 -0.19442205
000300 0d 5d 07 be e1 9d 0d 3f a8 5b f9 3e 54 6b 5d 3f
       -0.1321909 0.5531903 0.4870274 0.86491895
000310 73 dd 1b bf 23 bd 2a 3d 56 db 80 3f 3f 41 bb 3f
       -0.6088478 0.04168428 1.0066936 1.4629287
000320 a3 e4 6c bf 7c 73 77 3e 09 e5 f2 3f df 4f de 3f
       -0.9253637 0.24165148 1.8976146 1.7368125
000330 8d 9b 9e 3e 65 d5 a8 be 38 1d 9b be b5 fd 17 bf
       0.3097805 -0.32975307 -0.3029573 -0.593715
000340 8b 66 0e 3e 4d ef c9 3e 21 ea f0 3f c3 1c 36 be
       0.13906305 0.39440385 1.882145 -0.17784409
000350 84 6a 6b 3f a0 c5 c5 3f f5 d8 4c bf 22 cb 0a be
       0.91959405 1.5450935 -0.8001855 -0.13554052
000360 83 17 a1 3e b4 ff 7f 3f d6 62 8d be a6 9b 46 3f
       0.3146325 0.99999547 -0.27614468 0.7758125
000370 2e 99 ab 3f 38 44 f5 3c 02 33 20 bf 3f ad 98 bf
       1.3406122 0.029939756 -0.6257783 -1.192787
000380 33 ea fd bc 4f e3 d7 3d f5 c4 7e 3f f2 d6 31 3f
       -0.030995464 0.105414025 0.9951928 0.69468606
000390 8d 16 6e 39 33 a6 13 3d 72 99 56 3f d2 7a 9d 3f
       0.0002270585 0.03604717 0.8382789 1.2303107
0003a0 3c 5c ac bf 03 4b 9b 3f 92 e5 5b 3f 4f 77 93 bf
       -1.3465648 1.2132267 0.8589717 -1.1520785
0003b0 56 24 0c 3f 93 c3 bd 3e 0b 97 c0 bf 80 67 df bf
       0.54742944 0.37063274 -1.5046095 -1.7453461
0003c0 88 20 83 3e 2a 1f e8 be d2 64 3d 3e 2b af 1a 3e
       0.25610757 -0.45336276 0.18495491 0.15105884
0003d0 1c 05 f4 3f 3c 31 67 3e f3 6e 91 be 75 5a 90 bf
       1.9064059 0.22577375 -0.2840496 -1.1277605
0003e0 68 ae a3 bf 8e 04 f5 bf 85 5e f3 bf b0 14 e1 3f
       -1.27876 -1.9142015 -1.901322 1.7584438
0003f0 f8 06 eb be ab 91 8a bf 28 5b 8f bf a1 7a 93 bf
       -0.45903754 -1.0825704 -1.1199694 -1.1521798
