xy_position/weights/wc1_ypos.npy (npy, 3280 bytes, 1 tensors)

array f4 [5, 5, 1, 32]
000000 03 aa 68 3f 64 38 24 bf f7 85 24 bf 89 62 93 bf
       0.9088442 -0.64148545 -0.64266914 -1.1514446
000010 6f 46 84 be ae a5 60 3f d3 bd dd be 82 80 78 bf
       -0.25834987 0.8775281 -0.43308887 -0.9707109
000020 d9 12 46 be 04 17 43 bf 8f e2 3f 3f 14 7c a2 3f
       -0.19343127 -0.76206994 0.74955076 1.2694116
000030 a8 80 31 bf 13 cc b9 bd c1 11 b2 3d 49 63 53 3e
       -0.6933694 -0.09072127 0.086947925 0.20643343
000040 cc d5 86 bf 59 f9 e8 3e 69 97 90 3c 51 f4 9a be
       -1.0533996 0.45502737 0.017650323 -0.30264524
000050 97 34 e6 3c 54 60 12 3f 24 47 cc 3d 16 61 62 bf
       0.028101249 0.57178235 0.099745065 -0.8842939
000060 c2 f5 dc 3f 1b 4f 19 3f e3 13 af 3f 0a af 94 be
       1.7262499 0.5988633 1.3677944 -0.29039794
000070 5d df df be 2e ad 9b 3e 25 c0 84 bf bd c0 c4 be
       -0.437251 0.30405563 -1.0371138 -0.38428298
000080 7e 17 09 bf cc e1 46 bf 94 39 26 bf 48 57 d5 bf
       -0.5355147 -0.7768829 -0.6493161 -1.6667261
000090 77 6e fa 3e 59 c2 54 bf ed 12 c3 bf 32 8c 05 be
       0.48912403 -0.8310905 -1.5240151 -0.13041762
0000a0 7b 1f 69 3f 1a 1c a0 be 6c 10 6f bd 53 84 f5 3d
       0.9106366 -0.3127144 -0.05836527 0.119881295
0000b0 01 e5 f6 be 18 4e 00 3f 0f 22 f8 3d ab b6 d8 3e
       -0.4822159 0.5011916 0.12115871 0.42326865
0000c0 8a 65 91 3e b6 c6 94 3f c0 a2 1b 3f 5c 4c e3 3e
       0.2839778 1.1623142 0.6079521 0.44394195
0000d0 1e f9 56 3e 3b 42 bc 3e 6c 42 05 bf 92 5d a2 bf
       0.20993468 0.3676928 -0.52054477 -1.2684805
0000e0 f6 41 6c bf a4 3f bc be 86 2e 73 bf 4a 23 29 3f
       -0.9228815 -0.36767304 -0.94992864 0.6606947
0000f0 9a 18 4b bf 7e c5 24 be 01 5c 2d 3f 07 82 35 bf
       -0.79334414 -0.16090962 0.6771851 -0.7090153
000100 b9 12 1f bf d8 1f db be a2 e7 98 bf c2 2d c2 3e
       -0.62137944 -0.42797732 -1.1945689 0.37925535
000110 f9 61 c9 3d ce a0 88 be 79 27 ab bf 3f da d3 be
       0.0983314 -0.26685184 -1.3371421 -0.41377446
000120 99 43 1b bf 7d 93 93 3e 60 06 3f 3f 7e d4 4a 3e
       -0.6065002 0.28823462 0.746191 0.19807622
000130 f6 51 5e 3f d5 ea 59 3f 63 4f 61 3f 0d e5 6c bd
       0.8684381 0.8512395 0.8801176 -0.057835627
000140 f8 cc 4c 3f 86 e6 b7 3f 24 d8 92 bf e0 7f 87 3f
       0.8000026 1.4367225 -1.1472211 1.0585899
000150 4b f2 09 3c 2a e8 9f 3f 11 99 f7 be ee 2c 3c bf
       0.008419584 1.2492726 -0.48358968 -0.7350606
000160 64 da f1 be 2a d3 a2 be e6 0f 3d bf ae 18 8b 3f
       -0.4723693 -0.3180173 -0.73852384 1.0866907
000170 27 f7 1c bf 1d 37 49 3f e7 ae 5e bf 6e cc f0 3e
       -0.61314625 0.7859972 -0.8698563 0.47030967
000180 7d bc 68 be 92 8d 8b bf 2e 8a a8 3e 28 2f 81 3e
       -0.22728153 -1.0902579 0.32917923 0.2523129
000190 c1 3f 85 3f d1 ea f0 bf 84 6b e7 3e d6 65 e6 be
       1.0410081 -1.882166 0.45199215 -0.4499957
0001a0 2a db b2 3e 98 f2 61 3f 15 a7 d5 3c 01 d3 57 bf
       0.34932834 0.88260794 0.026080647 -0.8430634
0001b0 be 6e 03 c0 6f 6d 04 bf 46 67 76 bf b8 c6 2f 3f
       -2.0536342 -0.5172948 -0.9625133 0.68662596
0001c0 41 03 72 3d 98 88 db 3d 0c 1d c3 bf 8a e3 c1 3e
       0.059085134 0.107194126 -1.5243239 0.3786891
0001d0 7f fa a7 3f b0 a6 7f 3f d6 6b 4b 3f 58 6d 82 bf
       1.312332 0.9986372 0.7946142 -1.0189619
0001e0 11 df 01 bf 9c bf e2 3e 7b b7 fe 3e 27 96 e8 3e
       -0.50731 0.4428681 0.4974936 0.45427057
0001f0 f9 a4 5c 3f 88 e3 d3 be 9b eb 44 3f 36 f3 7d bf
       0.8618923 -0.4138453 0.76922005 -0.99199235
000200 ac 2e 81 bf 7e 18 47 be c3 f2 19 bf fa 6c 83 be
       -1.0092368 -0.19442937 -0.6013605 -0.2566908
000210 a5 8f fc 3d 87 f4 32 bf 2c 20 c4 3e e7 9a c5 bf
       0.123320855 -0.6990437 0.38305795 -1.5437897
000220 f5 47 74 bd 49 8d c9 be 5e 38 87 be 96 0d 86 3f
       -0.059638936 -0.39365605 -0.26410192 1.0472896
000230 fe e1 14 bf 85 0f 10 3f e1 c4 cf 3f 81 07 c5 be
       -0.58157337 0.5627368 1.6231958 -0.38482288
000240 59 7d db bd c8 44 ba 3e c1 13 fa 3e 66 dd 8d 3f
       -0.107172675 0.363806 0.48843196 1.108319
000250 52 ac 1d 3f ea 85 67 bf a1 aa eb bf b2 03 89 bf
       0.61591065 -0.9043871 -1.8411447 -1.0704253
000260 7d c0 ca bf f4 a4 56 3c 41 93 99 be 29 fb da 3d
       -1.5839993 0.013100851 -0.29995158 0.10692436
000270 e8 ce b2 3e 2f 20 e1 be 39 ff 08 bf 3b 6f 9e bf
       0.34923482 -0.43969867 -0.5351444 -1.2377695
000280 73 d4 90 3e ef 78 f8 3f d1 a1 b5 bf b4 24 10 bf
       0.28287086 1.9411906 -1.4190007 -0.56306005
000290 f7 e6 cd 3f 86 a9 b8 bf 87 67 ee 3e 28 d3 8c 3f
       1.608611 -1.4426734 0.4656336 1.100194
0002a0 60 87 89 3f 4d 0c a3 be d8 6f f8 bf 89 1c b9 3f
       1.0744438 -0.31845322 -1.9409132 1.4461833
0002b0 a9 87 21 bf ef 68 d3 bf d3 5c 83 3f c7 41 97 be
       -0.63097626 -1.6516398 1.0262703 -0.29542372
0002c0 89 78 15 bf bd f8 79 3e 58 de ca bf c2 7f a9 3f
       -0.5838705 0.24411292 -1.5849104 1.3242114
0002d0 70 77 3c 3f 04 a4 24 bf 01 e8 05 3f 84 ae 82 be
       0.7361975 -0.6431277 0.52307135 -0.2552377
0002e0 8d fa be bf df ff e9 bf e7 a9 58 be b8 31 71 be
       -1.4920212 -1.8281211 -0.21158563 -0.23554122
0002f0 f8 42 1a bf 64 24 37 bf f1 18 d7 bc 71 26 c1 3f
       -0.60258436 -0.715399 -0.02625701 1.5089856
000300 f5 17 f9 3e 9f 42 89 bf 16 ee 27 bf 70 6a 01 be
       0.4865109 -1.0723456 -0.65597665 -0.12638259
000310 a4 f0 4c 3f 6c f7 03 bf 32 3d 5f be 5a 1d a6 bf
       0.8005469 -0.5154941 -0.21800688 -1.2977707
000320 94 18 b8 bf 6d 06 f3 3e 33 00 38 bf 65 0e 49 bf
       -1.4382501 0.4746584 -0.71875304 -0.7853759
000330 7a bb b9 bf 22 bf 4b 3f 8b 58 79 be 10 e6 95 3e
       -1.4510338 0.7958852 -0.24350183 0.29277086
000340 97 ee 0e 3f a7 45 90 3f 67 08 16 3f 13 87 f8 3e
       0.5583281 1.1271256 0.5860657 0.48540553
000350 8f 05 b0 3f d5 81 30 bf e8 7b 8f be 10 70 43 3e
       1.3751696 -0.6894811 -0.2802422 0.19085717
000360 f1 a7 8d 3f 29 5b db 3c 53 6e d1 bf 05 b4 75 3f
       1.1066877 0.026776867 -1.6361793 0.95977813
000370 56 42 96 3f 22 bb d4 3f 96 dd 17 be 6b e4 9d 3f
       1.1738994 1.6619608 -0.14830622 1.2335333
000380 80 a3 47 3f bf 3f 2b be 7e eb 4f bf 11 26 b9 be
       0.77983856 -0.16723536 -0.8121871 -0.36161855
000390 20 5c ae 3f 1d 8d 5b be 9b ac 93 bf 27 a5 14 bf
       1.3621864 -0.21440549 -1.153705 -0.580645
0003a0 1e f3 fa be 0d 74 1a 3f 88 33 6f 3f 19 ca 23 bf
       -0.4901361 0.6033333 0.93438005 -0.6398025
0003b0 fb 45 dd 3e 02 2e 53 3f 9e 52 ce be b3 47 8d bf
       0.43217453 0.8249208 -0.40297407 -1.1037506
0003c0 41 4e c4 bf 02 33 6b 3f f0 94 dc bf 54 43 e0 3f
       -1.5336381 0.91874707 -1.7232952 1.7520547
0003d0 1e 2b bb bf 21 6b b3 bf 6e c9 ae 3f dc 17 a0 bf
       -1.4622533 -1.4017068 1.3655221 -1.2507281
0003e0 75 f8 9e 3d 0a dd 7c 3f e4 ea 78 3f ad e3 03 c0
       0.07762233 0.9877478 0.97233415 -2.0607712
0003f0 55 62 a6 bf cc bc 62 be 64 37 7a 3d d8 06 df bf
       -1.2998759 -0.22142333 0.06108798 -1.7423964
