xy_position/weights/wc1_xpos.npy (npy, 3280 bytes, 1 tensors)

array f4 [5, 5, 1, 32]
-0.8552407 -0.90772784 -1.1823077 1.3807957 -1.3759407 -1.181609 0.062255133 -1.9158114
0.61330795 0.9374398 -0.08394165 0.18101965 -0.6250182 -0.49878445 -0.7764016 1.3401048
-0.7419071 -0.27664396 -0.9992934 0.7575982 -0.43898836 0.88680947 -0.08960346 -0.36877745
-0.4713564 -0.27059302 0.6609717 0.16335452 -1.2012651 -0.19405314 -0.4896306 -0.19463114
1.491903 -0.18715338 0.39668173 0.27718872 1.3736624 0.054499134 -1.5418302 -0.49365783
1.6031437 -0.60841066 -0.66218936 -0.42971548 0.040654648 -1.2109925 -1.5153838 0.11052278
0.16399513 0.034023583 0.00799676 0.676178 0.12384865 -0.008269877 -0.047057364 -0.5672516
-1.7712475 1.0780647 0.3576259 -0.15958591 -0.04365977 -0.75505614 0.47314772 -0.7418763
-1.1590846 -1.4490471 -0.03409536 -0.8664962 1.3708564 -0.102792285 -1.960681 0.6995365
1.0150009 1.1466188 -1.6687232 1.116268 -0.20120245 -1.6975267 1.2447349 -0.82499266
-1.6622857 -0.4407767 0.16434005 -0.83184093 -1.0965803 1.141777 0.5065028 -1.4291874
-1.2071352 0.12959431 0.5710709 -0.069127515 -1.0257032 0.29282373 1.4486387 -0.038487215
0.096183546 0.7487068 -0.6767946 0.86013246 0.3083952 -0.12849857 -0.6348552 0.100001924
-1.1845185 -0.312959 -0.4201291 0.7422506 0.25711304 -0.71677274 -0.029719414 -1.5230144
-0.44336736 -0.44238624 1.1019717 -1.8946048 -1.1681025 0.673648 -0.60175836 0.009552085
0.85923064 -1.2983421 -1.2446465 -0.35492757 -0.60600865 0.081515506 -1.3463753 0.663228
0.45041364 -1.0851643 1.2712612 -0.30929738 1.46961 -0.025740612 -1.5638908 0.07795955
0.28805825 0.17556351 -0.009040221 -0.7455607 1.2135048 -0.90041375 -1.6336894 -0.6715394
1.4259771 -0.55978376 -0.115197904 1.997034 1.1211821 -1.7606286 0.2178778 0.91158134
-0.18762322 0.00024363364 -0.50899374 -0.91184956 1.026633 -1.0596074 0.85615486 -1.4384074
-0.4563674 -0.31623298 0.5007799 -0.3249991 -0.84244204 1.0219979 1.1514522 0.36634916
-0.58355564 1.2744989 0.17921415 -0.3433771 0.79565734 -1.918797 1.9000072 0.24288414
-0.9385906 0.18948528 0.6416771 -0.8985073 -0.57129264 1.057182 -0.66819984 -0.16250451
-0.7687436 1.3788905 -1.0901448 -0.75507224 0.89687467 -0.6656903 -0.6519446 0.7347333
-1.9708543 1.4744039 0.09510834 0.7296089 -0.424639 -0.37107822 -0.22719146 1.048977
-0.28945026 -0.723427 -0.51067364 -1.414786 0.6354025 -1.4014596 -0.9686946 -1.5460219
-0.026552496 -0.8661329 -1.864121 0.42386538 -0.4716154 0.72008634 1.5360512 0.5307743
-0.15299177 -0.28987214 -1.1603919 -0.27615872 -0.7933864 -0.33994868 -1.2851652 0.03181281
-0.15038069 1.2087702 -0.689931 -0.57357085 -1.0377924 -0.36614832 -1.3447961 -0.01857489
1.7290137 0.06158334 -0.3807836 -0.27155364 0.08890954 -0.115889914 -0.48949447 0.9543513
0.7322962 -1.3157598 -0.5687819 -0.03539105 1.7349198 0.15883495 0.4077345 -0.56756026
1.1375257 -0.6256618 0.29371983 0.054938246 0.83531094 -0.63485634 1.1838195 -0.77026135
00000000: 0ef1 5abf da60 68bf dc55 97bf eabd b03f
00000010: d31e b0bf f73e 97bf 3dff 7e3d 4f39 f5bf
00000020: c001 1d3f 0efc 6f3f 9ae9 abbd 375d 393e
00000030: 3101 20bf ad60 ffbe 41c2 46bf 8e88 ab3f
00000040: a0ed 3dbf 47a4 8dbe b1d1 7fbf f5f1 413f
00000050: 15c3 e0be f205 633f 0582 b7bd 66d0 bcbe
00000060: a055 f1be 2b8b 8abe 7135 293f 6846 273e
00000070: 0ec3 99bf deb5 46be ddb0 fabe 634d 47be
00000080: adf6 be3f 23a5 3fbe de19 cb3e aeeb 8d3e
00000090: 2bd4 af3f 7c3a 5f3d b15a c5bf b8c0 fcbe
000000a0: d033 cd3f cdc0 1bbf 3e85 29bf ab03 dcbe
000000b0: 7d85 263d cd01 9bbf 19f8 c1bf c459 e23d
000000c0: 57ee 273e 505c 0b3d d804 033c 001a 2d3f
000000d0: 5ca4 fd3d 617e 07bc 39bf 40bd 6737 11bf
000000e0: 3db8 e2bf 06fe 893f be1a b73e 7d6a 23be
000000f0: 96d4 32bd 5c4b 41bf 6b40 f23e 9beb 3dbf
00000100: e25c 94bf 607a b9bf 94a7 0bbd b2d2 5dbf
00000110: 3978 af3f c384 d2bd 98f7 fabf d314 333f
00000120: 8deb 813f 68c4 923f b998 d5bf dfe1 8e3f
00000130: 0408 4ebe 8e48 d9bf 7953 9f3f b832 53bf
00000140: c7c5 d4bf 7cad e1be c248 283e 87f3 54bf
00000150: be5c 8cbf c025 923f 2baa 013f 9def b6bf
00000160: 6883 9abf 5fb4 043e b431 123f ba92 8dbd
00000170: 3e4a 83bf feec 953e fe6c b93f c5a4 1dbd
00000180: e1fb c43d 40ab 3f3f 6942 2dbf a431 5c3f
00000190: fae5 9d3e 2195 03be df85 22bf cfcd cc3d
000001a0: 4d9e 97bf 293c a0be 291b d7be 2304 3e3f
000001b0: 52a4 833e 6b7e 37bf 2176 f3bc 23f2 c2bf
000001c0: 0c01 e3be 7380 e2be 690d 8d3f 6982 f2bf
000001d0: 6284 95bf 3274 2c3f d60c 1abf 5980 1c3c
000001e0: 8af6 5b3f 1330 a6bf 9450 9fbf 11b9 b5be
000001f0: 6223 1bbf 9af1 a63d 0756 acbf 4fc9 293f
00000200: 9e9c e63e aae6 8abf b0b8 a23f 3a5c 9ebe
00000210: 2e1c bc3f fadd d2bc 932d c8bf 42a9 9f3d
00000220: 5f7c 933e ecc6 333e 6f1d 14bc 11dd 3ebf
00000230: 2054 9b3f 8481 66bf bc1c d1bf 02ea 2bbf
00000240: 6b86 b63f fd4d 0fbf e1ec ebbd cf9e ff3f
00000250: e582 8f3f 475c e1bf 5c1b 5f3e 655d 693f
00000260: 4d20 40be e877 7f39 6a4d 02bf f96e 69bf
00000270: b668 833f 37a1 87bf f72c 5b3f bc1d b8bf
00000280: fda8 e9be 4ae9 a1be 1d33 003f 4866 a6be
00000290: 48aa 57bf d4d0 823f c962 933f 1e92 bb3e
000002a0: e763 15bf c822 a33f ea83 373e 20cf afbe
000002b0: 33b0 4b3f 249b f5bf 7033 f33f 9fb6 783e
000002c0: 7947 70bf 6e08 423e f344 243f 9304 66bf
000002d0: 3c40 12bf bd51 873f 250f 2bbf 9567 26be
000002e0: 61cc 44bf 7c7f b03f dd89 8bbf 6a4c 41bf
000002f0: 9499 653f ae6a 2abf d7e5 26bf 7b17 3c3f
00000300: f444 fcbf 44b9 bc3f 29c8 c23d a6c7 3a3f
00000310: 486a d9be f7fd bdbe e1a4 68be e144 863f
00000320: d332 94be 8332 39bf 82bb 02bf b517 b5bf
00000330: bda9 223f 0763 b3bf 5ffc 77bf 0ce4 c5bf
00000340: 9f84 d9bc e3ba 5dbf 849b eebf e204 d93e
00000350: 9377 f1be 9457 383f 539d c43f d3e0 073f
00000360: e0a9 1cbe 1f6a 94be b987 94bf ad64 8dbe
00000370: 5f1b 4bbf c10d aebe 4b80 a4bf 264e 023d
00000380: 65fd 19be fbb8 9a3f 519f 30bf 8ad5 12bf
00000390: 62d6 84bf cb77 bbbe 4722 acbf 5e2a 98bc
000003a0: 5250 dd3f d03e 7c3d 11f6 c2be 1409 8bbe
000003b0: 3416 b63d b157 edbd 059f fabe 5e50 743f
000003c0: c477 3b3f d16a a8bf b19b 11bf 35f6 10bd
000003d0: da11 de3f a1a5 223e 94c2 d03e a14b 11bf
000003e0: 719a 913f 5f2b 20bf 7262 963e ed06 613d
000003f0: f0d6 553f f285 22bf 6687 973f d92f 45bf
