xy_position/weights/wc1_v.npy (npy, 3280 bytes, 1 tensors)

array f4 [5, 5, 1, 32]
-0.65980834 -0.025197372 0.47672033 -0.8168505 0.5413339 0.71297586 -0.76495016 -0.033409003
1.1352404 -0.84378004 -0.027756939 -0.94985616 1.3179166 0.17883691 -0.08369843 -1.0890144
-0.09345533 -0.8608679 -0.6217953 0.98554754 1.9952977 -0.31039685 0.6019721 0.3626107
-0.08934038 0.37228644 0.4476315 0.90629536 -1.0673016 -1.1174119 -0.55388147 1.2096336
-0.43044487 -1.106947 0.03987232 1.454831 0.53822327 0.64881176 -0.16924232 0.16379972
0.9365688 0.50347626 -0.6872068 0.61990714 0.72023004 0.69128954 -1.3270777 -0.97989565
1.369431 -0.52669984 0.12569126 -1.9435071 -1.3301873 -0.70714414 1.4160813 -0.09500574
0.108259626 -0.6161376 1.7832733 1.6347339 -0.33123103 -0.15264724 -0.84428436 -0.035144724
0.17284764 0.09056233 0.9759135 -0.44359592 -1.0560653 -0.5532731 -0.44396153 -1.2083586
-0.78674424 -0.51109296 1.1898763 -0.9561237 -0.45528957 1.4437938 0.7145931 1.0082121
-1.0261278 -0.49628884 0.7687234 -0.59199995 1.1259063 1.1372736 1.2540097 1.1975735
-0.014136831 -0.9750362 1.1856904 -0.4576286 -1.1285255 -1.4070108 0.20590426 0.31774324
-0.49784908 -1.0507885 -0.2223027 0.10572862 -0.46344897 -0.24550772 -0.5531589 0.18105505
0.31633183 -0.6599106 -0.8593573 1.3580163 -0.24937628 -0.370426 -0.27106524 0.92988104
-0.42475995 0.45382693 -0.34222478 -0.22603168 0.85224 0.20088126 -1.8570409 -0.1174553
0.073645346 0.24795978 0.7153696 -0.14581095 0.44604644 -0.3659211 -0.16725565 -1.0613642
0.8992221 -0.24983612 0.596009 -0.98606545 -0.17101417 -1.3097794 0.26930594 -0.6251142
0.87880975 -0.0023548144 0.4639557 -0.08971828 0.7353353 -0.030763924 0.13271095 0.52840894
0.731348 1.0571581 0.24110371 -0.24158618 0.1637388 0.22790852 0.11526137 -0.54362285
-0.9551276 1.5852218 0.9418761 -0.48113906 -1.7825787 -0.01987257 -1.6481068 0.09874196
-0.34421617 -0.6759946 -0.21609381 0.4085492 0.6147418 0.16219556 1.0350595 0.8858176
0.29625553 0.26969004 -1.1030204 -1.6072503 -0.97272635 0.2691178 0.72844535 -1.6131996
0.5599793 1.0710714 -1.0051651 0.97884506 -0.8509112 1.0042726 0.045135666 1.6556962
0.18765639 -0.21495393 1.2562943 -0.018105062 -1.0738324 -1.416555 -0.017571766 0.9879984
-0.1384103 -0.60830355 -1.9315675 -1.0084809 -0.8321521 0.34161744 0.27163926 -1.2544507
-0.4094389 -1.1201286 0.18027529 -1.0603085 -1.0139105 0.0056985226 -0.7678368 -0.93732303
0.62296677 -0.9031712 -0.011324988 -0.72112656 -1.237466 0.66858375 0.7025747 -0.42390218
0.016199179 -0.056430742 0.9454151 -0.14193085 0.42173296 1.0937197 0.9553611 -0.65834254
0.28866932 0.53864306 -0.6606483 1.2273387 -1.3462374 -0.9942842 1.148481 0.097968794
0.3103088 -0.54456097 -0.4207075 0.95523936 -0.48737234 0.81867135 0.36869684 -0.46750966
1.1683009 -0.24685217 -1.1030358 -1.5574334 0.82633567 -0.8138376 -0.103977375 1.3289336
-0.7913611 0.16795325 -0.22825798 -1.774073 -1.1375129 -0.9519863 0.8540722 -0.14729425
00000000: 33e9 28bf b86a cebc b014 f43e 1d1d 51bf
00000010: dc94 0a3f 9685 363f c6d3 43bf e1d7 08bd
00000020: 8f4f 913f f801 58bf 8562 e3bc c629 73bf
00000030: 7eb1 a83f 0621 373e 156a abbd d364 8bbf
00000040: 8265 bfbd d761 5cbf fa2d 1fbf d84c 7c3f
00000050: ea65 ff3f 56ec 9ebe d81a 1a3f 1ca8 b93e
00000060: 17f8 b6bd 549c be3e f52f e53e f902 683f
00000070: 579d 88bf 5a07 8fbf 2dcb 0dbf 46d5 9a3f
00000080: 4563 dcbe 70b0 8dbf 2851 233d e737 ba3f
00000090: 00c9 093f 8718 263f dc4d 2dbe 1dbb 273e
000000a0: f9c2 6f3f d2e3 003f c9ec 2fbf 3cb2 1e3f
000000b0: ff60 383f 5af8 303f afdd a9bf 71da 7abf
000000c0: 8449 af3f cdd5 06bf 36b5 003e d7c4 f8bf
000000d0: 9443 aabf 6607 35bf 2742 b53f 5f92 c2bd
000000e0: 39b7 dd3d 32bb 1dbf 4d42 e43f f63e d13f
000000f0: 1d97 a9be 8f4f 1cbe 0523 58bf eaf3 0fbd
00000100: f9fe 303e be78 b93d 78d5 793f 011f e3be
00000110: 262d 87bf 4ea3 0dbf ed4e e3be 7fab 9abf
00000120: 1268 49bf fdd6 02bf de4d 983f 86c4 74bf
00000130: b71b e9be 3cce b83f 93ef 363f 180d 813f
00000140: 2858 83bf 9219 febe 0fcb 443f 4f8d 17bf
00000150: b31d 903f 2e92 913f 6483 a03f 174a 993f
00000160: 2b9e 67bc f99b 79bf b4c4 973f 4c4e eabe
00000170: 8673 90bf ee18 b4bf 91d8 523e 3eaf a23e
00000180: 13e6 febe 3d80 86bf 52a3 63be 3f88 d83d
00000190: 2f49 edbe 6066 7bbe d29b 0dbf 7f66 393e
000001a0: 3ff6 a13e e7ef 28bf d7fe 5bbf 7ad3 ad3f
000001b0: 7f5c 7fbe 7aa8 bdbe 10c9 8abe af0c 6e3f
000001c0: 237a d9be 015c e83e 1638 afbe d974 67be
000001d0: 672c 5a3f d1b3 4d3e 84b3 edbf 688c f0bd
000001e0: 5fd3 963d 2be9 7d3e 7622 373f 774f 15be
000001f0: 3360 e43e 035a bbbe 1145 2bbe c8da 87bf
00000200: 6b33 663f 0ad5 7fbe 0c94 183f c96e 7cbf
00000210: 571e 2fbe daa6 a7bf 78e2 893e 7c07 20bf
00000220: adf9 603f 3b53 1abb 9a8b ed3e 38be b7bd
00000230: ef3e 3c3f a004 fcbc 61e5 073e cf45 073f
00000240: 9f39 3b3f f550 873f e4e3 763e 5e62 77be
00000250: 25ab 273e da60 693e 270e ec3d de2a 0bbf
00000260: 3e83 74bf 8ce8 ca3f cb1e 713f dc57 f6be
00000270: 8a2b e4bf cdcb a2bc 2af5 d2bf 3a39 ca3d
00000280: 1a3d b0be fb0d 2dbf b247 5dbe 5c2d d13e
00000290: b85f 1d3f 9816 263e d47c 843f f1c4 623f
000002a0: ceae 973e d014 8a3e c62f 8dbf 61ba cdbf
000002b0: 9804 79bf cfc9 893e 657b 3a3f 537d cebf
000002c0: ce5a 0f3f de18 893f 40a9 80bf 9795 7a3f
000002d0: 51d5 59bf 018c 803f 2de0 383d daed d33f
000002e0: ff28 403e e21c 5cbe 40ce a03f 1151 94bc
000002f0: 5773 89bf ad51 b5bf aaf2 8fbc 77ed 7c3f
00000300: 6ebb 0dbe c8b9 1bbf 9b3d f7bf e715 81bf
00000310: ec07 55bf 7be8 ae3e 4d14 8b3e d791 a0bf
00000320: faa1 d1be 6060 8fbf 169a 383e 30b8 87bf
00000330: d2c7 81bf acba ba3b f490 44bf 67f4 6fbf
00000340: c07a 1f3f 3a36 67bf 718c 39bc c09b 38bf
00000350: 4965 9ebf 4e28 2b3f efdb 333f b509 d9be
00000360: 24b4 843c ec23 67bd b906 723f 5256 11be
00000370: 62ed d73e 02ff 8b3f 8c92 743f 2389 28bf
00000380: 77cc 933e 83e4 093f 3f20 29bf 6f19 9d3f
00000390: 8251 acbf 6989 7ebf 6d01 933f dda3 c83d
000003a0: cce0 9e3e 5968 0bbf f966 d7be 918a 743f
000003b0: de88 f9be 7294 513f d5c5 bc3e 6d5d efbe
000003c0: e28a 953f d1c6 7cbe 4730 8dbf fa59 c7bf
000003d0: bc8a 533f a957 50bf 17f2 d4bd 7f1a aa3f
000003e0: a496 4abf f0fb 2b3e 76bc 69be d314 e3bf
000003f0: 069a 91bf 60b5 73bf 7aa4 5a3f 4ed4 16be
