xy_position/weights/wc2.npy (npy, 204880 bytes, 1 tensors)

array f4 [5, 5, 32, 64]
000000 28 f9 91 3e 08 66 ce bc 33 f4 84 bf 77 76 13 3f
       0.28510404 -0.025195137 -1.0387024 0.5760264
000010 c2 3f d5 3f fe d0 2c bf a3 1a a8 bd 48 14 3c bf
       1.6660082 -0.67506397 -0.082082056 -0.73468447
000020 40 00 f5 bf 70 d7 9e 3f 18 c3 47 3e ae 11 78 bf
       -1.9140701 1.2409496 0.19508016 -0.9690198
000030 9f 66 bb 3e f4 5f 58 bf f2 90 2e bf 43 6f 37 3f
       0.3660173 -0.8452141 -0.6818992 0.71654147
000040 95 3b c0 bf 4b bb b6 3e d6 f9 ad bd 91 56 04 3f
       -1.5018183 0.35689768 -0.08494918 0.5169459
000050 58 16 ab bd 3b f7 d3 bf 0f 86 be bf 9d 2c 2e 3d
       -0.08353871 -1.6559824 -1.4884661 0.042523015
000060 5c b6 cc bf 13 a2 a5 3d 9b 1c 60 bf 93 a5 86 3e
       -1.5993152 0.08087554 -0.8754365 0.26298198
000070 ca f5 4d bf fb 6a fb 3e d4 de 9b bf 96 94 cc 3f
       -0.8045317 0.49105057 -1.2177377 1.5982845
000080 6e af 34 3e 7e e3 8b 3f fc fb 0b bf 83 6f aa 3f
       0.17645046 1.09288 -0.5468137 1.3315281
000090 35 94 e1 bb 1d 9b f8 3e 01 fc ee 3e 46 26 51 3e
       -0.0068841227 0.48555842 0.4667664 0.20424756
0000a0 1d ca b2 3f 3f 87 30 3f ff 6e 4a 3e 5e 08 20 3f
       1.396793 0.6895637 0.19768904 0.6251277
0000b0 a0 61 67 bf 5f 4c 0d bf 80 6f cc 3f 68 3b 9d 3f
       -0.9038334 -0.5519466 1.5971527 1.2283754
0000c0 74 58 6f bf 66 db f5 3f a5 42 f6 be 3c f9 2c 3e
       -0.93494344 1.920758 -0.4809772 0.1689195
0000d0 98 94 1e bf 30 b6 a8 be 23 ad 08 3f a4 e3 41 bf
       -0.61945486 -0.32951498 0.53389186 -0.7573798
0000e0 a2 48 8d bf dd 6a eb 3f 84 ff a8 be 95 b8 df be
       -1.1037791 1.8391987 -0.33007443 -0.43695512
0000f0 13 25 37 be 89 2b aa 3f c8 26 9c bf ca 0f 20 be
       -0.17885236 1.3294536 -1.2199335 -0.15631023
000100 ad a8 87 3f 8f 66 a0 bf 2a a4 45 3e e8 77 5a be
       1.0598351 -1.2531298 0.19300905 -0.21334803
000110 d5 66 89 bf ee 81 28 3e dd fc c9 3f 44 42 42 3f
       -1.0734507 0.16455814 1.5780293 0.75882363
000120 fc 54 5c bd 95 6c 15 3e 05 e2 d4 3f 7f 94 dc 3f
       -0.053791985 0.14592202 1.6631476 1.7232817
000130 f5 01 96 be 3d d8 5d 3f 72 2a 94 3f f4 c6 63 be
       -0.29298368 0.8665808 1.1575453 -0.22243863
000140 53 cb b4 bf 3b 5e dc 3e 27 b0 fa 3e 18 c2 b8 bf
       -1.412455 0.43040642 0.4896252 -1.4434233
000150 2f 7b 04 3f 19 3f 8a be 07 d4 f9 3e cb c8 9e 3f
       0.51750463 -0.27001265 0.48794577 1.2405027
000160 50 51 f6 3e 54 8a 7e 3f 13 b6 1b 3f 65 97 3f 3f
       0.48108912 0.9942982 0.608247 0.74840385
000170 e5 14 70 be b4 c0 8f bf e0 8f 88 be ab 94 c6 3e
       -0.2344547 -1.1230683 -0.26672268 0.387853
000180 07 8c 4e bf 43 56 98 bf 60 06 e3 3d 42 23 c6 3e
       -0.80682415 -1.1901325 0.110852 0.38698775
000190 e6 55 b7 3e c7 2a c1 bc dc 43 6d be d5 10 fc bf
       0.35807723 -0.023579968 -0.23170418 -1.9692637
0001a0 37 8e 0e 3f c0 dd 5f bd 47 88 81 bf e8 9d a5 3d
       0.5568575 -0.054654837 -1.0119714 0.08086759
0001b0 17 da 18 3f a8 f2 20 bf 70 25 0d bf ed be ad bf
       0.5970778 -0.62870264 -0.5513525 -1.3573891
0001c0 b3 d2 b2 3f 9c 7b 99 bf 87 8f dc be df 39 74 3f
       1.397055 -1.1990848 -0.43078253 0.95400804
0001d0 b5 e7 a9 be 45 0c bf 3d ad 1b 38 bf ee d0 09 bf
       -0.3318459 0.09328512 -0.7191723 -0.53834426
0001e0 2c ed 88 3e 32 3a c8 be 74 1b dc bd bc ca 21 3f
       0.26743448 -0.391069 -0.10747424 0.63199973
0001f0 32 89 f7 be 1d 6f 87 3f 17 1b 38 bf 6d 1b d1 be
       -0.4834686 1.0580784 -0.71916336 -0.40841237
000200 79 e3 02 40 d2 ba 34 bf 47 c0 87 3f cb 25 3c bf
       2.0451338 -0.70597565 1.0605553 -0.7349517
000210 1e c8 b7 bf 5a b3 a7 be c4 36 0f bf 57 94 fe 3f
       -1.4357946 -0.32754022 -0.5594294 1.988902
000220 9e e8 1d be 76 08 1e 3f a1 0d 47 bf 24 01 53 3f
       -0.15420768 0.6173166 -0.7775517 0.82423615
000230 f9 a5 77 3f 86 59 0e 3f f3 93 98 bf 5c 7a 4a be
       0.9673763 0.5560535 -1.192015 -0.19773239
000240 04 96 d8 3f 6f aa 47 bf 2e 7e ee bf b1 2b 1f 3f
       1.6920781 -0.77994436 -1.8632257 0.6217604
000250 01 c6 ea bf 89 ba 21 3f 33 d9 d3 bf 24 84 dc bd
       -1.8341676 0.63175255 -1.6550659 -0.10767391
000260 57 01 4d 3f 9d 09 a0 be 29 6b d9 be a8 79 04 3d
       0.8008017 -0.31257334 -0.4246457 0.032342583
000270 48 df bb 3d d0 f9 b6 bf 75 b1 5e bf 32 0e c6 3e
       0.09173447 -1.4294987 -0.8698953 0.38682705
000280 65 39 40 bf 1b c2 a2 3e ae 5d 12 bf 1c 16 c1 be
       -0.7508758 0.31788716 -0.57174194 -0.3771218
000290 44 8b d4 bf 60 be 93 3d 83 16 f8 3f ba ea 8a 3f
       -1.6605 0.072140455 1.938187 1.0852883
0002a0 cc ac 50 be 4b 25 50 3d a1 17 e1 be 47 86 2d 3e
       -0.20378417 0.050816815 -0.4396334 0.16945754
0002b0 5f 22 13 3f 40 5f af bf 31 b9 c6 3e fd 16 84 3e
       0.5747432 -1.3700943 0.38813165 0.2579879
0002c0 f0 da 13 bf ca 55 5d 3f 4a ea e5 3f 5a c0 2f be
       -0.5775595 0.8645903 1.7962124 -0.1716322
0002d0 26 c6 46 bf c0 72 92 be f4 74 72 3b e3 71 1d bf
       -0.776461 -0.28603172 0.003699598 -0.615019
0002e0 d9 d0 b9 bf cc 6e b4 bf b6 f6 9e bd 12 92 6a bf
       -1.451686 -1.4096313 -0.077619 -0.91629136
0002f0 78 8b a1 bf ad a6 60 bf 77 52 00 bf f7 98 41 3f
       -1.2620687 -0.8775433 -0.5012583 0.7562403
000300 28 1b a9 bf fe 20 82 bf 2a 22 6a 3f 8f 0b 8e bd
       -1.3211412 -1.0166318 0.9145838 -0.069357984
000310 10 4d 32 3f d7 89 b5 bd b3 4b 81 bf 26 e4 11 3e
       0.6964884 -0.088641815 -1.0101227 0.14247188
000320 87 6c 15 3c 30 19 6e bf a3 e8 9b bf 19 c7 8f bf
       0.009120113 -0.93007183 -1.218037 -1.1232635
000330 6d 04 e0 3f 94 17 a5 bf b5 37 16 bf 16 e1 a1 3e
       1.7501351 -1.289782 -0.5867875 0.3161704
000340 22 cd 5e 3f ca 7d 56 3e a5 74 e1 bf 96 b9 8c 3f
       0.8703176 0.20946422 -1.7613722 1.0994136
000350 92 33 28 3e 99 0a 74 bf 2e a8 da 3e 68 e2 95 bf
       0.16425923 -0.9532867 0.42706436 -1.1709719
000360 3e 8b b8 bf b3 72 a2 3f 1b 45 84 bf 5e 2d 21 3f
       -1.4417493 1.2691253 -1.0333589 0.6295985
000370 62 02 eb 3d 08 d8 94 3d 74 19 68 bf b0 fc 33 bf
       0.11475064 0.07267767 -0.9066384 -0.70307446
000380 cc a2 2d 3f d8 c2 ab 3f e1 46 c1 3d 7b 5d 76 3d
       0.67826533 1.3418837 0.09437347 0.060147744
000390 8d 75 9f bf 63 ef 00 bf b3 44 ad 3f 82 5d 3d be
       -1.2457749 -0.50365275 1.353659 -0.18492702
0003a0 30 be e4 be b9 89 92 be b9 f1 85 be 11 be b0 be
       -0.44676352 -0.286207 -0.26160982 -0.3452001
0003b0 67 b2 be 3f 39 ed a6 be b7 fb c6 3d f5 ee fa be
       1.4898194 -0.32602862 0.097159795 -0.49010435
0003c0 ab bd 8e 3e 12 2b e4 bf 65 b3 25 3e 09 0e 74 be
       0.2787908 -1.7825644 0.16181715 -0.23833479
0003d0 0e c3 00 3f f0 8f b5 3f 66 1c e5 bf ba 36 21 3f
       0.5029763 1.4184551 -1.7899292 0.6297413
0003e0 49 4b 67 3f 60 05 93 3f f2 4a 37 3e 54 7f 51 3e
       0.9034925 1.1486015 0.17899683 0.20458728
0003f0 6a 37 8e 3f d3 10 24 3e 4b e8 c4 3e ab 42 ae be
       1.1110661 0.16022043 0.38458475 -0.3403524
